FiveK/HashLUT_6+13_SmallBackbone/model0367.pth (torch, 548518 bytes, 21 tensors)

hashluts.params f4 [73392]
0	0xbe3c4293	-0.18384771
1	0x3d6d7384	0.057971492
2	0xbe5d4b35	-0.2161072
3	0xbb5431f4	-0.0032378407
4	0xbd3f7b77	-0.046748605
5	0xbcc42be2	-0.023946706
6	0xbc3699b7	-0.011145047
7	0xbc1f09e4	-0.009706948
8	0xbc095dd2	-0.008384185
9	0x3b4dca66	0.0031401156
10	0xbc18067e	-0.009278892
11	0xbcae4ce5	-0.0212769
12	0xbe95dc4a	-0.2926963
13	0xbe8f8249	-0.28029087
14	0xbc9acc90	-0.018896371
15	0x3e37b75e	0.17941043
16	0xbe6cce15	-0.23125489
17	0xbe32c7fb	-0.17459099
18	0x3d81ab52	0.06331505
19	0x3de26908	0.11055189
20	0x3d80e83d	0.06294296
21	0x3cb501df	0.022095619
22	0xbd0e0540	-0.034672976
23	0x3dc3d873	0.09562769
24	0xbd62266a	-0.055212416
25	0xb972cb2b	-0.00023154604
26	0xbdab7da4	-0.083735734
27	0x3d065c80	0.03280306
28	0x3d5557c8	0.052085668
29	0xbe4e4d4c	-0.20146674
30	0x3e3e6cde	0.18596217
31	0x3ea5597d	0.32294837
32	0x3ecd3656	0.40080518
33	0xbe51269c	-0.20424885
34	0x3e3e0ccf	0.18559574
35	0xbefebc32	-0.49752957
36	0x3efa6f80	0.48913193
37	0x3e87cc32	0.26522976
38	0x3dc85d72	0.09783448
39	0xbe467f13	-0.19384412
40	0xbe0740c7	-0.13208304
41	0xbc5a9a04	-0.013342384
42	0xbe094ff1	-0.13409401
43	0xbdfd1ac2	-0.12358619
44	0x3e94dc27	0.29074213
45	0x3c5eca80	0.013598084
46	0x3e9cf00f	0.306519
47	0x3ea95db1	0.33079293
48	0x3c2fee65	0.01073799
49	0xbed14397	-0.4087188
50	0xbe1be771	-0.15225007
51	0xbe64429e	-0.22291037
52	0x3ee1b279	0.44081476
53	0xbe828384	-0.25490963
54	0xbd2c78bd	-0.042107332
55	0x3e2274a5	0.15864809
56	0xbd5b850a	-0.053593673
57	0xbcd78b66	-0.026311588
58	0x3e423385	0.18964966
59	0xbd4f46ff	-0.050604817
60	0x3e4d6e82	0.20061687
61	0xbc318500	-0.010834932
62	0x3e2c6776	0.16836342
63	0xbeb1cb2e	-0.34725326
64	0x3f37526e	0.7161015
65	0x3e595735	0.21224673
66	0x3cc00191	0.023438247
67	0x3e7f69b5	0.24942668
68	0x3db7fadd	0.08983395
69	0xbd1fa7f8	-0.038978547
70	0xbcd4b61c	-0.025965743
71	0x3d53944a	0.05165509
72	0xbc1821d5	-0.00928541
73	0x3d55286b	0.0520405
74	0x3cb5e1e4	0.02220244
75	0xbd5a6b8d	-0.053325225
76	0x3e465306	0.19367608
77	0xbc2f6280	-0.010704637
78	0x3e81c7c7	0.2534773
79	0x3e840cd1	0.25791028
80	0x3ee17143	0.44031724
81	0xbe8a4f17	-0.27013466
82	0x3e88ca10	0.2671666
83	0xbea72c34	-0.32650912
84	0x3dff0c18	0.124534786
85	0xbdcc0d6a	-0.09963496
86	0xbd09b2db	-0.033617835
87	0xbdc56606	-0.096386
88	0xbc2f00f3	-0.010681379
89	0x3d2befd0	0.04197675
90	0x3d2c42bd	0.042055834
91	0xbd8a21af	-0.06744706
92	0x3e528cce	0.20561525
93	0xbd63d888	-0.055626422
94	0x3e9395ef	0.28825328
95	0x3dcc0814	0.09962478
96	0x3e051216	0.1299518
97	0x3d315453	0.04329331
98	0xbda5fd84	-0.08104995
99	0x3dd79358	0.105261505
100	0x3e12f31c	0.14350551
101	0xbded1985	-0.11577133
102	0x3d9352bf	0.07193517
103	0xbc2575ec	-0.010098916
104	0x3c238637	0.00998073
105	0xbd781e21	-0.06057561
106	0xbc870455	-0.016481558
107	0x3c583dd7	0.0131983375
108	0x3e798056	0.24365363
109	0xbe839324	-0.25698197
110	0x3e9724af	0.29520175
111	0x3e1c16de	0.15243098
112	0x3eb64a5e	0.35603613
113	0xbeaad345	-0.3336431
114	0xbe94ab2e	-0.2903685
115	0xbd9ba420	-0.07599664
116	0x3e653ec1	0.2238722
117	0xbd492833	-0.049110603
118	0xbd961627	-0.07328444
119	0xbdaaa05f	-0.083313696
120	0xbdfe3b2f	-0.12413632
121	0x3d911f5c	0.070860595
122	0xbd7c31c8	-0.061570913
123	0x3b436a24	0.0029817903
124	0xbde393a2	-0.11112143
125	0x3eabcfb9	0.33556917
126	0x3e102d12	0.14079693
127	0x3dd5a118	0.10431117
128	0x3e8e0d7b	0.2774466
129	0xbdc4f1bd	-0.096164204
130	0xbeb4ca8f	-0.3531079
131	0xbe809b0c	-0.2511829
132	0x3f4869da	0.78286517
133	0xbe8e5089	-0.27795818
134	0xbc7909cc	-0.01520009
135	0xbc088ebe	-0.008334814
136	0xbc35f3fb	-0.011105533
137	0x3c9dc0c1	0.019256951
138	0x3c0f4b46	0.008745974
139	0x3c75a9f2	0.014994131
140	0x3e9a9069	0.301883
141	0xbdcdd3c8	-0.1005016
142	0x3c1e62e0	0.009667128
143	0x3dfe41a0	0.12414861
144	0xbdfdc681	-0.12391377
145	0x3cbb6ddc	0.022879533
146	0xbd70e229	-0.058809433
147	0x3c701607	0.014653689
148	0x3d5ecdae	0.05439537
149	0xbeb0ea29	-0.3455365
150	0xbdab10cc	-0.08352813
151	0xbc971f01	-0.018447401
152	0xbda0ba06	-0.07847981
153	0x3d66aa8f	0.056315
154	0x3d611f08	0.054961234
155	0x3cda7cb8	0.026670799
156	0xbe5875f2	-0.21138743
157	0x3e82ec5d	0.25570956
158	0xbe4ce786	-0.20010194
159	0xbe3c1018	-0.18365514
160	0xbe78f16d	-0.24310847
161	0xbe26819f	-0.16260384
162	0x3e1c736f	0.1527841
163	0xbf07b620	-0.53012276
164	0x3ee957b8	0.45574737
165	0xbe2aef7a	-0.16692916
166	0x3e104486	0.1408864
167	0xbd8e3cb7	-0.06945174
168	0x3db36365	0.087591924
169	0xbca1cecd	-0.01975193
170	0xbdae3aab	-0.08507284
171	0x3d785f21	0.060637597
172	0xbdffda8c	-0.124928564
173	0x3e58435e	0.21119449
174	0x3e450db6	0.19243512
175	0xbdc17250	-0.094456315
176	0xbee80c62	-0.45321947
177	0x3e86683f	0.26251408
178	0x3ebd84a9	0.37015274
179	0x3e52ecae	0.20598099
180	0xbd0f8c2f	-0.0350458
181	0xbddacc56	-0.10683505
182	0xbc2af2fc	-0.010433909
183	0xbdc13c00	-0.09435272
184	0xba86f949	-0.0010297681
185	0xbd405088	-0.0469518
186	0x3d2f902a	0.042862095
187	0x3b54a78c	0.0032448499
188	0x3d468398	0.04846534
189	0x3eb1ed7d	0.34751502
190	0xbe6b57d7	-0.22982727
191	0x3e76571e	0.2405667
192	0x3d716fa5	0.058944363
193	0xbe217100	-0.15765762
194	0xbdec0244	-0.1152387
195	0xbe8c5616	-0.27409428
196	0x3dd12c9c	0.10213587
197	0xbd68adf8	-0.056806535
198	0xbdadf9e9	-0.08494932
199	0xbd02737f	-0.031848427
200	0x3d20111c	0.039078817
201	0x3d4205d7	0.04736885
202	0xbd8561d9	-0.065128036
203	0x3dc68ae2	0.096944585
204	0x3c55a5a0	0.013039976
205	0x3e7d9be6	0.24766502
206	0x3e64bcfa	0.22337714
207	0xbe90d5ac	-0.2828802
208	0xbe8e0eaf	-0.27745578
209	0x3f097dbe	0.5370749
210	0xbe16feba	-0.14745608
211	0xbdaf2668	-0.08552247
212	0xbc82ef57	-0.015983267
213	0xbc421325	-0.011845385
214	0xbc80e91a	-0.015736151
215	0x3c554e06	0.0130190905
216	0xbcc3c128	-0.023895815
217	0xbc915588	-0.01774098
218	0xbc3c72e5	-0.011502002
219	0x3c739574	0.014867175
220	0xbdc92138	-0.09820789
221	0xbe5722c2	-0.21009353
222	0xbe2d84a5	-0.16945131
223	0xbc547820	-0.012968093
224	0x3e8b15ab	0.2716497
225	0x3f0e6ae2	0.5563184
226	0x3a1b4ac7	0.00059239235
227	0xbe658f1b	-0.22417872
228	0xbe4c92e6	-0.19977912
229	0x3c5adb1e	0.013357906
230	0x3da2c599	0.07947845
231	0xbc68568f	-0.014180793
232	0x3bec2887	0.0072069797
233	0xbd1a729e	-0.037706964
234	0x3ce841bb	0.028351655
235	0xbaeedac9	-0.0018223162
236	0x3d40e5b0	0.047094047
237	0xbe04f8f0	-0.12985587
238	0xbea94a68	-0.3306458
239	0x3e6caf7e	0.2311382
240	0x3e1fd1f5	0.15607436
241	0x3e253e65	0.16137083
242	0xbc9c0f32	-0.019050214
243	0xbd406847	-0.046974447
244	0x3ed0e211	0.40797475
245	0xbdf9181f	-0.12162804
246	0x398335ea	0.00025026436
247	0xbc718c85	-0.014742975
248	0x3ca583c7	0.020204438
249	0x39cccb5d	0.0003906143
250	0xbbe3fd5f	-0.0069576944
251	0x3bac3659	0.005255502
252	0xbe4223e8	-0.1895901
253	0x3dd0d1b8	0.10196251
254	0x3e744492	0.23854282
255	0xbd8e3dc8	-0.069453776

expert.0.model.0.weight f4 [8, 3, 3, 3]
0	0x3f1d7efb	0.6152188
1	0x3e97389c	0.29535377
2	0x3ea90c7c	0.33017337
3	0x3f2887ed	0.65832406
4	0x3ef36dcb	0.47544703
5	0x3f0c617b	0.54836243
6	0x3ec60971	0.38679078
7	0x3e8925e5	0.26786724
8	0x3e76e6be	0.24111459
9	0xbe776e2f	-0.24163125
10	0xbf203c9e	-0.62592494
11	0xbeeb46a6	-0.45952338
12	0xbc04b004	-0.008098606
13	0xbe978469	-0.29593208
14	0xbeaa8936	-0.3330781
15	0x3da52fb5	0.0806574
16	0xbf04cc41	-0.51874167
17	0xbe95ef48	-0.2928412
18	0xbeba0dc2	-0.3633862
19	0xbe8b5a94	-0.27217543
20	0xbe899a51	-0.26875547
21	0xbe6a8c41	-0.22905065
22	0xbd882557	-0.06647747
23	0xbd314215	-0.04327591
24	0xbd8ac691	-0.06776155
25	0xbdf90861	-0.12159801
26	0xbe1d89c9	-0.15384592
27	0xbe0b8b5d	-0.13627382
28	0xbeadda50	-0.33955622
29	0xbe9d2166	-0.30689543
30	0xbd987a4b	-0.074452005
31	0xbe71fda2	-0.2363191
32	0x3cc1cc14	0.023656882
33	0x3cf1c2d6	0.02951185
34	0x3e2b5f05	0.16735466
35	0xbdbde637	-0.092724256
36	0x3e89720f	0.26844832
37	0x3e92aa20	0.2864542
38	0x3e8233de	0.25430197
39	0x3e2a84ac	0.16652173
40	0x3ead486e	0.33844322
41	0x3f731210	0.94949436
42	0x3e9e2969	0.30890968
43	0x3f01edfa	0.5075375
44	0x3f8b56ab	1.0885824
45	0x3ec6278c	0.38702047
46	0x3e53e7da	0.20693913
47	0x3ed96f55	0.42467752
48	0x3f10191f	0.5628833
49	0x3ef8773e	0.48528475
50	0x3f7a3bd6	0.9774755
51	0x3f3585df	0.70907396
52	0x3f02b301	0.5105439
53	0x3f71226e	0.9419316
54	0x3e44516a	0.19171682
55	0xbdc87f68	-0.09789926
56	0x3e056c3b	0.13029568
57	0x3ef3fe16	0.4765479
58	0xbe3bc068	-0.18335116
59	0xbe35adeb	-0.17742126
60	0x3f0df400	0.5545044
61	0x3d809084	0.06277564
62	0x3dee678d	0.116408445
63	0x3e8459d1	0.25849774
64	0xbe6e3337	-0.23261724
65	0xbd5ad59c	-0.05342637
66	0x3ecc5574	0.39908946
67	0xbe12187d	-0.14267154
68	0xbe8a4625	-0.2700664
69	0x3f2118c0	0.6292839
70	0x3da002ea	0.07813056
71	0xbbe42e45	-0.0069635236
72	0x3e8aab44	0.2708379
73	0xbe02bb9d	-0.12766881
74	0xbe6adab9	-0.22934999
75	0x3e8cfe2f	0.27537677
76	0xbd0ad52a	-0.033894695
77	0xbe223534	-0.15840608
78	0x3e5f00aa	0.21777597
79	0x3d8338de	0.06407331
80	0x3db2db43	0.08733227
81	0x3ef9540c	0.48696935
82	0x3e333459	0.17500438
83	0x3e33f0ee	0.17572376
84	0x3ec8b021	0.39196876
85	0x3e27771b	0.16354029
86	0xbe368374	-0.17823583
87	0x3daa885a	0.08326788
88	0x3e293810	0.16525292
89	0x3de345e4	0.11097315
90	0x3f537330	0.8259764
91	0x3e8a041b	0.26956257
92	0x3da85904	0.082201034
93	0x3f0b7a13	0.54483145
94	0x3e3f0153	0.18652849
95	0xbe9fd1e2	-0.31214815
96	0x3eb4cc20	0.35311985
97	0x3e029626	0.1275259
98	0xbbaa8407	-0.005203727
99	0x3f3ddb3b	0.74162644
100	0x3e275562	0.16341165
101	0xbeb08170	-0.34473753
102	0x3e606b7d	0.21916004
103	0x3e346f5c	0.17620605
104	0xbe6d9a17	-0.23203312
105	0x3e781a40	0.24228764
106	0xbe2f3489	-0.17109884
107	0xbe24342e	-0.1603553
108	0xbeba5a25	-0.363969
109	0xbee9fdee	-0.45701545
110	0xbe9ed091	-0.310185
111	0x3e516734	0.20449525
112	0x3e6b7a93	0.22995977
113	0x3d25603a	0.040374972
114	0x3dda3d25	0.10656194
115	0x3df060a4	0.11737183
116	0xbe52ea0c	-0.20597094
117	0xbe7c3155	-0.24628194
118	0xbf34680f	-0.7047128
119	0xbeb776d5	-0.3583285
120	0x3e533554	0.20625812
121	0xbe38735c	-0.18012756
122	0xbddec719	-0.108778186
123	0x3e423615	0.18965943
124	0x3de8fb74	0.11376086
125	0xbe53183c	-0.20614713
126	0xbe9ea781	-0.3098717
127	0xbf1113eb	-0.5667102
128	0xbe712b9b	-0.2355179
129	0x3ef00db7	0.46885464
130	0xbe6e774d	-0.23287697
131	0xbe705126	-0.23468456
132	0x3eab1903	0.3341752
133	0x3ebcc22d	0.36866894
134	0xbdbdc371	-0.09265793
135	0xbfac0685	-1.343949
136	0xbf50a82d	-0.81506616
137	0xbea2366e	-0.31682152
138	0xbe900e1e	-0.2813577
139	0xbc2b7bc4	-0.01046652
140	0x3e27b8b5	0.16379054
141	0xbc069cfd	-0.00821614
142	0xbe8d7a2c	-0.27632272
143	0x3dca7c36	0.098869726
144	0xbffc5c4f	-1.971567
145	0xbfa7d6ea	-1.3112462
146	0xbf849c8e	-1.0360277
147	0xbe379829	-0.17929138
148	0xbdcc03fc	-0.099616975
149	0xbdc89b46	-0.09795241
150	0xbeb440e9	-0.35205773
151	0xbe9cccc1	-0.30624965
152	0xbdd65c47	-0.10466819
153	0xbf5b32af	-0.8562421
154	0xbeca56cd	-0.3951935
155	0xbee1b38a	-0.4408229
156	0xbde4a049	-0.111633845
157	0x3d8c5e30	0.06853902
158	0x3e542ddc	0.20720619
159	0xbdeed5c3	-0.116618656
160	0x3daed6e6	0.085370824
161	0x3e74d558	0.23909509
162	0x3f1c5b22	0.6107656
163	0x3ee0dfa6	0.4392063
164	0x3f8297fe	1.0202634
165	0xbec0413f	-0.3754978
166	0xbef81a36	-0.48457497
167	0x3f2863f9	0.65777546
168	0xbe91d168	-0.28480077
169	0xbf0149ea	-0.5050341
170	0x3f089ab6	0.5336107
171	0x3e8fee02	0.28111273
172	0x3e6536a4	0.22384125
173	0x3ed6d5c7	0.41959974
174	0xbf1da604	-0.61581445
175	0xbf3ce4fd	-0.7378691
176	0x3eabb67b	0.3353766
177	0xbeed0ca9	-0.4629872
178	0xbf38d572	-0.7220069
179	0x3e88a0c4	0.26685154
180	0xbe01df1c	-0.12682766
181	0xbdcf565e	-0.10123895
182	0x3e7e3419	0.24824561
183	0xbe9a835d	-0.30178347
184	0xbe6605ea	-0.22463194
185	0x3ec3671a	0.38164598
186	0xbe4c1e97	-0.19933544
187	0x3dc2049e	0.09473537
188	0x3f0cb784	0.5496752
189	0x3e9b0368	0.30276036
190	0x3f23624d	0.6382187
191	0x3f2e9b48	0.6820569
192	0x3ed7deee	0.4216227
193	0x3f9d49e8	1.2288179
194	0x3f364733	0.7120239
195	0x3e962e02	0.29331976
196	0x3f6ae751	0.9175921
197	0x3f467b87	0.7753224
198	0xbbb5a274	-0.0055430476
199	0x3e978ce2	0.29599673
200	0x3e627f50	0.22118878
201	0x3e36ebee	0.17863438
202	0x3f10274b	0.56309956
203	0x3db21bea	0.086967304
204	0x3eee2bd1	0.46517804
205	0x3f28563b	0.6575658
206	0x3e099ea5	0.13439424
207	0xbe8bba37	-0.27290508
208	0x3daed1b6	0.08536093
209	0xbe2ed5a2	-0.17073682
210	0xbd9ecace	-0.07753526
211	0x3dd57586	0.104228064
212	0xbe14cca7	-0.14531194
213	0xbd804da8	-0.06264812
214	0xbe7040ae	-0.23462173
215	0xbe94d207	-0.29066488

expert.0.model.0.bias f4 [8]
0	0xbf2c099d	-0.6720217
1	0xbef228a4	-0.4729663
2	0xbfc2b036	-1.5210025
3	0xbf3ee102	-0.74562085
4	0x3f5e2df9	0.867889
5	0x3f2bb3bf	0.67071146
6	0x3ea84a65	0.3286926
7	0xbeda76e6	-0.42668837

expert.0.model.2.weight f4 [8]
0	0x3e6cff3d	0.2314424
1	0x3ecb8420	0.3974924
2	0x3fa1a629	1.2628833
3	0x3f9e04e2	1.234524
4	0x3f8b14ad	1.0865685
5	0x3fb173c4	1.3863454
6	0x3f60ceb1	0.87815386
7	0x3a9a904a	0.0011792269

expert.0.model.2.bias f4 [8]
0	0x3ee0b097	0.43884727
1	0x3e5e5624	0.21712548
2	0x3ddd18a5	0.10795716
3	0xbcbf436a	-0.023347575
4	0xbef737f3	-0.48284873
5	0xbe01643e	-0.12635896
6	0xbe0e7f1c	-0.13915676
7	0x3b245536	0.0025075204

expert.0.model.3.weight f4 [16, 8, 3, 3]
0	0xbf71ef10	-0.94505405
1	0xbe9c9a0c	-0.30586278
2	0xbf0ced48	-0.5504956
3	0xbf651034	-0.8947785
4	0xbe743993	-0.23850088
5	0xbed1e4be	-0.4099483
6	0xbf7ea299	-0.99466854
7	0xbf2b0698	-0.66806936
8	0xbf125546	-0.57161367
9	0x3ea7e599	0.32792357
10	0x3eb8615f	0.36011788
11	0x3e64d0b4	0.22345239
12	0x3dc8d9c1	0.09807158
13	0x3e4be2db	0.19910757
14	0xbe0a991b	-0.13534968
15	0xbe706f22	-0.23479894
16	0xbed9442e	-0.4243483
17	0xbf217927	-0.6307549
18	0x3e2b4976	0.16727242
19	0x3f398613	0.72470206
20	0x3e30e3bb	0.17274372
21	0x3e439fa1	0.19103862
22	0x3f0e3fd9	0.55566174
23	0x3e24a513	0.16078596
24	0xbde1de35	-0.11028711
25	0xbdf4c916	-0.119524166
26	0xbed29c3b	-0.4113482
27	0xbd81f047	-0.063446574
28	0x3ee438fe	0.44574732
29	0xbcf7785e	-0.030208763
30	0xbcb1af2c	-0.021689974
31	0x3ef1b988	0.47211862
32	0xbe0a9c31	-0.13536145
33	0xbea2b667	-0.31779787
34	0xbd7611a5	-0.06007542
35	0xbee8d226	-0.4547283
36	0x3e19f7ae	0.15035889
37	0x3ee8468a	0.45366317
38	0x3f6673a5	0.9002021
39	0x3eac3eb3	0.33641586
40	0x3e322c65	0.17399748
41	0x3f1bec3d	0.60907346
42	0x3e51426a	0.20435491
43	0x3eb5e96d	0.35529652
44	0x3f4dee86	0.8044208
45	0xbc3f8310	-0.011688963
46	0xbef1a7a7	-0.4719822
47	0x3d857d67	0.06518059
48	0xbef4c26a	-0.47804576
49	0xbf620536	-0.882892
50	0xbef0292e	-0.46906418
51	0xbca490bb	-0.020088544
52	0xbe81a0fc	-0.25318134
53	0x3e95cb77	0.29256794
54	0x3e76d51e	0.24104735
55	0xbf4eccdb	-0.80781335
56	0xbf3b8729	-0.73253113
57	0x3dc08b99	0.09401626
58	0xbf032979	-0.5123516
59	0xbf57636c	-0.8413608
60	0x3e910a59	0.28328207
61	0xbe2185da	-0.15773717
62	0xbd2bb772	-0.041922994
63	0x3d8080d2	0.062745705
64	0x3e83fb7a	0.257778
65	0xbdcff86b	-0.10154804
66	0xbe126ae6	-0.14298591
67	0x3d9f89e3	0.07789972
68	0xbd0a3ff4	-0.033752397
69	0xbd0634d1	-0.032765213
70	0xbc6e5925	-0.014547621
71	0xbe936cc7	-0.28793928
72	0xbf117301	-0.5681611
73	0xbee69ab9	-0.4503992
74	0xbe97b12c	-0.2962736
75	0xbfe70cb7	-1.8050755
76	0xbfdcea8d	-1.7259079
77	0xbfa3dab4	-1.2801118
78	0xbf9fefb1	-1.2495023
79	0xbf9b9915	-1.2156092
80	0xbf64e3b6	-0.8940996
81	0x3e45fc67	0.19334565
82	0x3e8646db	0.26225933
83	0xbdc49034	-0.09597817
84	0xbe0e1aee	-0.1387746
85	0xbcd0f08f	-0.025505332
86	0xbe9de36b	-0.3083757
87	0xbe65d0cc	-0.22442931
88	0xbe935b81	-0.2878075
89	0xbf0fd768	-0.5618806
90	0xbe1ed2ab	-0.15510051
91	0xbd886466	-0.066597745
92	0x3d84fa48	0.0649305
93	0x3ec5d686	0.3864023
94	0x3e0303bc	0.12794393
95	0x3ea06567	0.31327364
96	0x3ebbd55a	0.36686212
97	0xbe5f7133	-0.21820526
98	0xbe0c6387	-0.13709842
99	0xbe01413f	-0.12622546
100	0x3d282792	0.041053362
101	0x3d953fee	0.07287584
102	0x3df1ad93	0.11800685
103	0x3dfb24e2	0.12262894
104	0x3eaf91d2	0.3429094
105	0x3e54997d	0.20761676
106	0xbc62e498	-0.013848446
107	0x3e16f009	0.14740004
108	0x3e219efd	0.15783305
109	0x3ea3481b	0.3189095
110	0x3eb78472	0.35843235
111	0x3eac75cb	0.3368362
112	0x3e6199ad	0.22031279
113	0x3ec769cb	0.389479
114	0x3eb9c66f	0.36284205
115	0x3eefbe7e	0.46825022
116	0x3f43294e	0.762349
117	0xbd833b30	-0.064077735
118	0xbdfac6dd	-0.122449614
119	0xbe5a6ded	-0.21330996
120	0xbf3b45cc	-0.73153377
121	0xbf648cef	-0.8927755
122	0xbf62a1d1	-0.8852816
123	0xbe4df71f	-0.201138
124	0xbe25e063	-0.16198878
125	0xbe8174bd	-0.25284377
126	0x3eccba61	0.39985946
127	0xbf0632d0	-0.52421284
128	0xbec981ad	-0.39356747
129	0xbd84b81a	-0.06480427
130	0x3e04b0f0	0.12958121
131	0xbe883f9a	-0.26611024
132	0xbec23b2f	-0.37935778
133	0xbe63eabe	-0.22257516
134	0xbea10f17	-0.31456825
135	0xbe16ccda	-0.14726582
136	0x3c237f3c	0.0099790655
137	0xbc2d7925	-0.010587965
138	0xbdfc7eeb	-0.12328895
139	0x3e3fb586	0.1872159
140	0x3d6b0fac	0.057387993
141	0xbdcbd044	-0.09951833
142	0xbcb1960f	-0.021677999
143	0x3d3de9ef	0.046365675
144	0x3f06482d	0.5245388
145	0xba240e63	-0.00062582473
146	0x3ef66ba8	0.4812901
147	0x3eb13ebf	0.34618184
148	0xbedb38d5	-0.42816797
149	0xbd64c0bb	-0.055847865
150	0x3edf44e0	0.43607235
151	0xbe83e58a	-0.25761062
152	0x3e07e89b	0.13272326
153	0x3f387fba	0.72069895
154	0xbe01c8bc	-0.1267423
155	0x3e06e9f3	0.13175182
156	0x3f27bbf0	0.65521145
157	0xbdc184fd	-0.094491936
158	0x3ce29a71	0.027661534
159	0x3f4f71ec	0.81033206
160	0xbe803a53	-0.25044498
161	0x3df92948	0.12166077
162	0x3cc96948	0.024586335
163	0xbf87f620	-1.0621986
164	0xbe86cd60	-0.26328564
165	0x3e4f9db2	0.20275
166	0xbf23d0f8	-0.63990736
167	0xbe5e6198	-0.21716917
168	0xbf0949bb	-0.5362813
169	0xbed40742	-0.41411787
170	0xbc1cd55a	-0.009572351
171	0x3e75b185	0.239935
172	0x3f3e8c29	0.7443262
173	0x3e34b4e9	0.17647137
174	0x3ede18f8	0.43378425
175	0x3f512144	0.81691384
176	0x3ec1d257	0.3785579
177	0xbc90708c	-0.017631792
178	0x3f64a608	0.89315844
179	0x3e64f6d3	0.22359781
180	0xbc02b97a	-0.007978791
181	0xbc9e05cd	-0.019289875
182	0x3e0832c7	0.1330062
183	0x3dd736f0	0.10508525
184	0xbe6bbabf	-0.23020457
185	0xbc9e5684	-0.019328363
186	0xbd9d239b	-0.07672807
187	0x3dbfac92	0.09359087
188	0xbc97b16c	-0.018517219
189	0x3eb6023f	0.3554859
190	0x3f084dec	0.532439
191	0x3e87c4a7	0.2651722
192	0x3e964bc0	0.29354668
193	0x3f120046	0.5703167
194	0xbd46b538	-0.048512667
195	0x3e1c398b	0.15256326
196	0x3e6416e3	0.22274356
197	0x3e25ca7a	0.1619052
198	0xbead74bc	-0.33878124
199	0x3f08ac82	0.53388226
200	0xbdd9e395	-0.10639111
201	0xbf8031eb	-1.0015234
202	0x3dacb5e3	0.0843313
203	0x3c3fe682	0.011712672
204	0x3f71d287	0.94461864
205	0xbe35d938	-0.17758644
206	0xbe709592	-0.23494557
207	0xbca4e50d	-0.020128751
208	0x3d183764	0.0371622
209	0xbaf44a80	-0.0018637925
210	0xbd01fa10	-0.03173262
211	0x3cc422c1	0.023942353
212	0x3cf4c8bd	0.029880876
213	0x3d81d55e	0.06339525
214	0xbda20a40	-0.07912111
215	0xbc616ede	-0.013759343
216	0x3ef38d7b	0.4756888
217	0x3e883584	0.2660333
218	0x3dbae02c	0.09124789
219	0x3e9b6b39	0.30355242
220	0x3e7b1e0c	0.2452318
221	0xbe6e9229	-0.23297943
222	0x3b0c2d1e	0.0021389197
223	0x3e07df9c	0.13268894
224	0xbeacb080	-0.3372841
225	0xbe32bf32	-0.17455748
226	0x3e277382	0.16352656
227	0x3f259653	0.646825
228	0xbee1e5d3	-0.44120654
229	0xbeaad4b1	-0.33365396
230	0x3d5204d3	0.051274132
231	0xbeaec7e2	-0.34136873
232	0xbe1235a0	-0.14278269
233	0x3d0f3e09	0.03497127
234	0x3e3019c5	0.1719733
235	0xbe81dae8	-0.25362325
236	0xbc4b1d91	-0.012397186
237	0xbde68bf5	-0.112571634
238	0x3e4bf530	0.1991775
239	0x3e62cf81	0.22149469
240	0x3c57972a	0.013158599
241	0x3e647f27	0.2231413
242	0x3dd79083	0.1052561
243	0x3f35081c	0.707155
244	0x3f0a43ef	0.5400991
245	0x3f061e2e	0.523898
246	0x3f18d388	0.5969777
247	0x3f3573b3	0.7087967
248	0x3f07a1b8	0.5298114
249	0x3d473b08	0.04864028
250	0x3e9ff694	0.31242812
251	0x3e5e5c32	0.21714857
252	0x3f4ed3b0	0.8079176
253	0x3e753e08	0.23949444
254	0xbd399a6f	-0.045313295
255	0x3f5c35e5	0.86019737

expert.0.model.3.bias f4 [16]
0	0x3d0d8d83	0.034558784
1	0xbf7b4c0d	-0.9816292
2	0xbf82a064	-1.0205197
3	0xbfa95e5e	-1.3231924
4	0x3e1ba796	0.15200648
5	0xbf1cd581	-0.6126328
6	0xbfa14d78	-1.2601767
7	0xbf81f751	-1.01536
8	0xbe796b85	-0.24357422
9	0xbe5d9067	-0.21637116
10	0xbdc77579	-0.09739203
11	0x3f3e241d	0.74273854
12	0xbdc812c8	-0.09769207
13	0xbf061fbd	-0.5239218
14	0xbe853b7b	-0.26021942
15	0xbf9703a5	-1.1797987

expert.0.model.5.weight f4 [16]
0	0x3f51a51f	0.8189258
1	0x3f9d8f89	1.2309428
2	0x3f8685a6	1.0509536
3	0x3f943dc5	1.158135
4	0x3f83409b	1.0254091
5	0x3f1e5e12	0.6186229
6	0x3f776795	0.9664243
7	0x3f8b45a8	1.0880632
8	0x3f2772f2	0.6540977
9	0x3f4c4075	0.79785854
10	0x3ef00841	0.46881297
11	0x3f35830e	0.709031
12	0x3fa979ba	1.3240273
13	0x3f6c2f74	0.9225991
14	0x3f7dd51f	0.9915332
15	0x3f8bc03b	1.0918039

expert.0.model.5.bias f4 [16]
0	0xbd75c58a	-0.06000284
1	0x3ec3ec31	0.38266137
2	0xbf0bfbbb	-0.54680985
3	0xbf49f358	-0.7888694
4	0x3f45a27f	0.77201074
5	0x3e7a3039	0.24432458
6	0xbe783604	-0.24239355
7	0xbf539006	-0.8264164
8	0xbe98f138	-0.29871535
9	0xbf175b24	-0.59123445
10	0xbf5ac892	-0.85462296
11	0x3ec9ccce	0.39414066
12	0xbec806fc	-0.3906783
13	0xbebc8492	-0.36819893
14	0x3f6b6211	0.9194651
15	0x3f0104a0	0.5039768

expert.0.model.6.weight f4 [32, 16, 3, 3]
0	0xbe9882a4	-0.2978717
1	0xbe6c52a3	-0.23078398
2	0xbf05b015	-0.52221805
3	0x3e3291dd	0.17438455
4	0xbda6d589	-0.08146197
5	0xbd73106a	-0.059341826
6	0x3e003db0	0.12523532
7	0xbe81573f	-0.25261876
8	0xbe9a4e9b	-0.30138096
9	0x3ebea318	0.37233806
10	0x3e933783	0.2875329
11	0x3d8261d6	0.06366317
12	0x3ed4ba6d	0.41548482
13	0x3f090c33	0.5353424
14	0x3e95af36	0.29235238
15	0x3f06d9b2	0.52675927
16	0x3ee2ce61	0.4429808
17	0x3eae1a29	0.34004334
18	0xbf1abe7e	-0.6044692
19	0x3e36670b	0.17812745
20	0xbe70101c	-0.23443645
21	0xbe5e781b	-0.21725504
22	0x3e8fa8b6	0.28058404
23	0xbccd3525	-0.025049755
24	0x3e971fd4	0.2951647
25	0x3f3266dc	0.696882
26	0x3eebdf9b	0.46069035
27	0xbf2f725b	-0.6853387
28	0xbee59825	-0.4484264
29	0xbf0c0199	-0.5468994
30	0x3d4e70bb	0.050400477
31	0xbd057fc8	-0.032592565
32	0xbdfc08c5	-0.1230636
33	0xbd42c8c7	-0.047554757
34	0x3c81d6de	0.015849527
35	0xbcc19fc0	-0.023635745
36	0x3eaf30cb	0.34216914
37	0x3e018f87	0.12652408
38	0x3e266359	0.16248836
39	0x3f11aa60	0.56900597
40	0x3eef6489	0.4675639
41	0x3ef51c38	0.47873092
42	0x3e6487d6	0.22317442
43	0xbd6db650	-0.058035195
44	0xbe7d7b57	-0.24754082
45	0x3dc03cbd	0.09386585
46	0x3d8e8445	0.06958822
47	0xbc9a6188	-0.018845335
48	0xbb44e555	-0.003004392
49	0x3c0a60fd	0.008445975
50	0xbde0b9e6	-0.10972957
51	0xbe9fd440	-0.3121662
52	0xbe8cfa03	-0.27534494
53	0xbecd3bfa	-0.4008482
54	0x3f1711e5	0.5901168
55	0x3ef4ef72	0.47838932
56	0x3eb4d56b	0.35319075
57	0x3ecd896c	0.40143907
58	0x3edfa8e9	0.43683556
59	0x3dd8f125	0.1059287
60	0x3e01033c	0.1259889
61	0xbc5361bb	-0.012901719
62	0xbdcdbd19	-0.10045833
63	0xba900841	-0.0010988788
64	0x3ea12408	0.31472802
65	0x3ef16dcc	0.4715408
66	0xbdad4d9d	-0.08462069
67	0x3e807c8b	0.2509502
68	0x3e8b983c	0.27264583
69	0x3e605997	0.21909176
70	0x3eaae79b	0.33379826
71	0x3e807315	0.250878
72	0xbe7072d4	-0.23481303
73	0xbe599fa4	-0.21252304
74	0xbc59e555	-0.013299306
75	0xbea5ca7c	-0.32381046
76	0xbe8a373a	-0.2699526
77	0xbe027f09	-0.12743773
78	0xbe0b3158	-0.13593042
79	0x3dd78d1c	0.10524961
80	0xbd0328c5	-0.032021303
81	0x3ef9c326	0.487817
82	0x3f1d4c3d	0.61444455
83	0x3edf48f0	0.43610334
84	0x3e9a1d3f	0.30100438
85	0x3e872226	0.2639324
86	0x3e8dfb5a	0.2773083
87	0x3f9f1063	1.2426876
88	0x3fa24376	1.2676837
89	0x3f867613	1.0504783
90	0xbe914f2d	-0.2838072
91	0xbbcd09c3	-0.006257267
92	0xbe222a46	-0.15836439
93	0x3d4dded4	0.050261334
94	0x3e40a21e	0.18811843
95	0xbc93a00b	-0.01802065
96	0x3f0c3eee	0.54783523
97	0x3f4f74c5	0.8103755
98	0x3f21aafa	0.63151515
99	0x3e4b80d9	0.1987337
100	0x3e171f12	0.14757946
101	0x3e0e1093	0.1387351
102	0x3e686555	0.22694905
103	0x3eb4bcb7	0.35300228
104	0x3dbfcbee	0.093650684
105	0x3f0d8151	0.55275446
106	0x3f24ae57	0.6432852
107	0x3f3800c5	0.71876174
108	0xbe523b6d	-0.20530482
109	0x3e06c6b4	0.13161737
110	0xbd856be2	-0.06514718
111	0x3e54a3ab	0.2076556
112	0x3ebe62f7	0.3718488
113	0x3ecd9845	0.40155235
114	0x3e9da689	0.3079112
115	0x3eb742bf	0.3579311
116	0x387742e7	5.8951697e-05
117	0x3f1888ed	0.5958393
118	0x3f2a0abd	0.66422635
119	0x3f3b5907	0.7318272
120	0x3eaa6e1c	0.33287132
121	0x3eac2f2a	0.33629733
122	0x3e40c380	0.18824577
123	0x3d4e77cf	0.050407227
124	0x3cf443b6	0.029817443
125	0xbe28be0b	-0.16478746
126	0xbf4fc3b3	-0.8115799
127	0xbe9d3241	-0.30702403
128	0xbf0ae8a0	-0.5426121
129	0xbf6a27a9	-0.91466767
130	0xbead55b5	-0.33854452
131	0xbf23e51c	-0.6402147
132	0xbf1f2790	-0.6216974
133	0x3cc2ca28	0.023778036
134	0xbdeb27cb	-0.11482199
135	0x3eef4467	0.46731874
136	0x3f41e78b	0.7574393
137	0x3f5bef85	0.8591235
138	0x3f33517d	0.70046216
139	0x3f53b61b	0.82699746
140	0x3f3eda90	0.7455225
141	0x3f29d83d	0.6634558
142	0x3f8229d4	1.0169015
143	0x3f3353c6	0.70049703
144	0xbf7d5847	-0.98962826
145	0xbf890980	-1.0706024
146	0xbf04e92e	-0.51918304
147	0xbfb811b8	-1.4380407
148	0xbfc8915e	-1.5669363
149	0xbf96163d	-1.1725537
150	0xbf117a07	-0.56826824
151	0xbf2eede8	-0.68331766
152	0xbe514f55	-0.20440419
153	0x3d442e77	0.047895875
154	0x3e4b0f6f	0.19830106
155	0x3df3db16	0.11907022
156	0xbf0f191d	-0.55897695
157	0xbec6f8e7	-0.38861772
158	0xbf1c816b	-0.61134976
159	0x3dbdb4fe	0.09263037
160	0x3e847564	0.25870812
161	0x3d8cb9ad	0.06871352
162	0xbed83624	-0.42228806
163	0xbf149a21	-0.5804768
164	0xbebae004	-0.36499035
165	0x3e723b3e	0.23655412
166	0x3ec6fad0	0.3886323
167	0x3ebf9073	0.37414894
168	0xbe5e9da0	-0.21739817
169	0xbb0905bd	-0.0020907961
170	0xbe2eaa66	-0.1705719
171	0xbea78e6f	-0.32725856
172	0xbe73a095	-0.23791726
173	0xbd93af97	-0.072112255
174	0x3e9cba1c	0.3061074
175	0x3ee04981	0.4380608
176	0x3ec99945	0.39374748
177	0xbe77876f	-0.24172758
178	0xbe167a27	-0.14695035
179	0xbde6a6bf	-0.11262273
180	0x3efadc14	0.4899603
181	0x3f0f4014	0.5595715
182	0x3f0c8ff0	0.5490713
183	0x3e1e13f9	0.15437306
184	0x3da64658	0.08118886
185	0x3e16b418	0.14717138
186	0x3e53e6f6	0.20693573
187	0x3ec901d4	0.39259207
188	0x3e3b1595	0.18269952
189	0xbd02b350	-0.031909287
190	0x3bf5af80	0.007497728
191	0xbe63b72a	-0.2223784
192	0xbeab2758	-0.33428454
193	0xbea73987	-0.32661077
194	0xbf1dd5f4	-0.6165459
195	0x3e37ff13	0.17968397
196	0x3e47c4c0	0.19508648
197	0xbe223edf	-0.15844296
198	0xbdd9fe9b	-0.10644265
199	0x3cc2b1e8	0.023766473
200	0x3e226d82	0.15862086
201	0xbf4e7ea9	-0.8066202
202	0xbf1d51f9	-0.61453205
203	0xbf33a5e3	-0.70175
204	0xbce07d6c	-0.027403556
205	0xbe250b79	-0.16117658
206	0x3c7eb7b7	0.015546731
207	0xbf0b310e	-0.54371727
208	0xbed71847	-0.4201071
209	0xbec3af6f	-0.38219783
210	0xbf17f4b3	-0.59357756
211	0xbef1a6e0	-0.47197628
212	0xbf1d3b7c	-0.6141889
213	0xbebb46a9	-0.36577347
214	0xbe7b2e6e	-0.2452943
215	0xbe496318	-0.19666708
216	0xbf13720d	-0.575959
217	0xbefee266	-0.49782103
218	0xbee2c9ec	-0.4429468
219	0xbdf9b025	-0.121918
220	0xbd8b86d2	-0.06812824
221	0x3a227bc1	0.00061982503
222	0xbe72be40	-0.23705387
223	0xbd67cbfc	-0.05659102
224	0xbe760187	-0.2402402
225	0x3e9e70b8	0.30945373
226	0x3f6d9045	0.9279826
227	0x3f48da2d	0.7845791
228	0x3eb40815	0.35162416
229	0x3eea8ec1	0.45812038
230	0x3ede5297	0.43422386
231	0x3dd76263	0.10516813
232	0x3ed5ecc8	0.41782212
233	0x3ec287e4	0.379943
234	0x3e343183	0.17597012
235	0x3ef40ef6	0.47667664
236	0x3eb5a9c5	0.35481086
237	0x3f089dbe	0.53365695
238	0x3f3394bc	0.70148826
239	0x3f1c6066	0.6108459
240	0x3ec4a4e8	0.38407063
241	0x3f43455e	0.7627772
242	0x3f3e2cdf	0.7428722
243	0x3f0775b7	0.52913994
244	0x3f1baccd	0.6081055
245	0x3ecfead3	0.40608844
246	0x3f86858f	1.0509509
247	0x3fac21f5	1.3447863
248	0x3f879fa2	1.0595591
249	0x3f699ff2	0.9125968
250	0x3f6cec30	0.92547894
251	0x3f3e8b08	0.74430895
252	0x3c5f7a5d	0.0136400135
253	0x3e31f340	0.17377949
254	0x3daa215b	0.08307143
255	0xbe16c355	-0.14722951

expert.0.model.6.bias f4 [32]
0	0xbf2f717f	-0.68532556
1	0xbebb03e9	-0.3652642
2	0xbf3cdcb9	-0.73774296
3	0x3f12a5e4	0.5728438
4	0xbea5b193	-0.3236204
5	0xbf6f5fdd	-0.9350565
6	0xbf4a3907	-0.78993267
7	0x3e0e8164	0.13916546
8	0xbfa1cab6	-1.2639987
9	0xbf8f7fae	-1.121084
10	0xbfba5e1e	-1.4559972
11	0xbf773df1	-0.9657889
12	0xbebda119	-0.3703697
13	0xbf8f3eab	-1.1191
14	0xbfa7b8e6	-1.3103302
15	0xbeb28419	-0.34866408
16	0xbee412eb	-0.44545683
17	0x3eff4843	0.4985982
18	0xbfe5454c	-1.7911773
19	0xbf60128b	-0.87528294
20	0xbec28c28	-0.37997556
21	0xbf0bbdcc	-0.5458648
22	0xbddaa5b4	-0.106761366
23	0xbe2266f0	-0.1585958
24	0x3f8d58db	1.1042742
25	0xbf17ff0c	-0.59373546
26	0xbf9f2557	-1.243327
27	0xbf19c019	-0.6005874
28	0xbfd56566	-1.6671569
29	0xbf650e79	-0.8947521
30	0xbeeb1116	-0.45911473
31	0x3cb47d5a	0.022032429

expert.0.model.8.weight f4 [32]
0	0x3f3692c5	0.713177
1	0x3f93e428	1.1554003
2	0x3f5c42f4	0.8603966
3	0x3f9eed7f	1.2416228
4	0x3f85cfb3	1.045401
5	0x3f8517a8	1.0397844
6	0x3fa3aee1	1.2787744
7	0x3f57f3ad	0.84356195
8	0x3f4721b6	0.77785814
9	0x3f915327	1.1353501
10	0x3fa02681	1.251175
11	0x3ed2cd74	0.41172373
12	0x3fa9c1c4	1.3262258
13	0x3f83a8ad	1.0285851
14	0x3f323d11	0.6962443
15	0x3f1b1454	0.60577893
16	0x3f7cb836	0.98718584
17	0x3f2a9b20	0.6664295
18	0x3f82021e	1.0156896
19	0x3faab795	1.3337275
20	0x3f8fc442	1.1231768
21	0x3f4a2622	0.78964436
22	0x3fa5388e	1.2907884
23	0x3f691b8e	0.9105767
24	0x3f830b36	1.0237796
25	0x3f56a050	0.8383837
26	0x3fa0d8e5	1.2566191
27	0x3f891faa	1.0712788
28	0x3fb31a86	1.3992469
29	0x3faacfe2	1.3344691
30	0x3f85e919	1.0461761
31	0x3f8f1191	1.1177236

expert.0.model.8.bias f4 [32]
0	0x3e900c1b	0.28134236
1	0x3e21cd54	0.15800983
2	0x3ea466a7	0.32109568
3	0xbd18d16c	-0.037309095
4	0xbc2ec3f4	-0.010666836
5	0x3dc58597	0.09644621
6	0x3e2cdc58	0.1688093
7	0xbd7d13c1	-0.061786417
8	0xbe2ad68f	-0.1668341
9	0xbe89f05d	-0.26941195
10	0x3e4ec147	0.20190917
11	0x3f26b484	0.65119195
12	0xbec2da95	-0.3805739
13	0xbe874039	-0.26416185
14	0x3f5fd84b	0.8743941
15	0x3e43016a	0.19043508
16	0xbe70713c	-0.23480695
17	0x3deddd2c	0.11614451
18	0x3f04afa5	0.5183051
19	0xbd87113d	-0.06595085
20	0x3e1b06ce	0.15139315
21	0x3d96d783	0.07365324
22	0xbe11fcea	-0.14256635
23	0xbe08ba90	-0.13352418
24	0x3e6d110a	0.23151031
25	0xbde504d6	-0.11182563
26	0x3f6718fc	0.902725
27	0x3d4386f1	0.047736112
28	0xbbae07a4	-0.0053109694
29	0xbeb8e69e	-0.36113447
30	0xbe8c5fd6	-0.27416867
31	0xbe57aad7	-0.21061264

expert.0.model.9.weight f4 [64, 32, 3, 3]
0	0xbedb7fc6	-0.4287092
1	0x3db8f9a3	0.090319894
2	0xbdd79085	-0.10525612
3	0xbeb85c7c	-0.3600806
4	0xbeae5e3e	-0.34056276
5	0xbefd8874	-0.49518168
6	0xbec37735	-0.38176885
7	0xbe757c90	-0.23973298
8	0xbe904e82	-0.28184897
9	0x3f56e4ef	0.83943075
10	0x3f22a8f1	0.63539034
11	0x3f7f0825	0.996218
12	0xbde20817	-0.11036699
13	0xbd71bced	-0.059018064
14	0x3e04eefb	0.12981789
15	0x3ed43ee3	0.4145423
16	0x3e4401a7	0.19141255
17	0x3f021eb4	0.508281
18	0x3df12221	0.11774088
19	0xbddd3816	-0.10801713
20	0x3d101cdf	0.035183784
21	0x3eac0f5c	0.33605468
22	0xbd828c8b	-0.06374463
23	0x3c59cb5b	0.013293113
24	0xbc13a186	-0.009010678
25	0x3d285f14	0.0411063
26	0x3d4bb93e	0.049737208
27	0xbf560415	-0.8359998
28	0xbf1c43c2	-0.6104089
29	0xbf4c69be	-0.7984885
30	0x3d25d8fc	0.040490136
31	0x3d541f04	0.05178739
32	0x3d721929	0.059106026
33	0xbf16d66a	-0.5892092
34	0xbf83bc3e	-1.0291822
35	0xbf90f75d	-1.1325489
36	0xbec00622	-0.3750468
37	0xbf1d3066	-0.61401975
38	0xbee9580b	-0.45574984
39	0xbdb5f724	-0.08885029
40	0xbea02e2d	-0.3128523
41	0xbe26cd3e	-0.16289231
42	0xbec71507	-0.3888323
43	0xbf0a5741	-0.5403939
44	0xbf11ca65	-0.56949455
45	0x3d06b913	0.032891344
46	0x3d0a786f	0.03380626
47	0xbee3cb6d	-0.4449114
48	0x3e389af2	0.18027857
49	0x3dbb197d	0.09135721
50	0xbe236eb8	-0.15960205
51	0xbe4ac8c2	-0.19803146
52	0x3e19a77f	0.15005301
53	0xbed42fa6	-0.41442603
54	0xbe9fdc99	-0.3122299
55	0xbe94bc46	-0.2904989
56	0xbc920180	-0.01782298
57	0x3d802660	0.062573195
58	0x3de14db6	0.1100115
59	0xbda2eea0	-0.0795567
60	0xbea535ab	-0.32267508
61	0xbecc7f07	-0.39940664
62	0xbe213ef6	-0.15746674
63	0x3eb67e63	0.356433
64	0x3e9f6648	0.31132722
65	0xbd5c23c1	-0.053745035
66	0x3e19e160	0.1502738
67	0x3e094479	0.13405026
68	0x3d9c7930	0.07640302
69	0x3d872dd2	0.066005364
70	0x3e3c9694	0.18416816
71	0xbe24aa24	-0.16080528
72	0x3ee25034	0.44201815
73	0x3ef549f9	0.47908
74	0x3ee6e425	0.45095935
75	0x3ec873ae	0.39150757
76	0x3e2ba2b2	0.16761282
77	0x3e9b8e60	0.3038206
78	0x3ed93de0	0.4243002
79	0x3e96762e	0.2938704
80	0x3ea49375	0.3214375
81	0x3e444e0c	0.19170398
82	0xbd52d3db	-0.051471572
83	0xbe0adb35	-0.13560183
84	0x3f317e0e	0.6933297
85	0x3ea5be17	0.3237159
86	0x3ea49c1c	0.32150352
87	0x3de234e4	0.11045244
88	0xbd1814df	-0.03712928
89	0xbe051acb	-0.12998502
90	0x3e055d57	0.13023888
91	0x3e41483e	0.18875214
92	0xbd4f807b	-0.050659638
93	0xbdce56b9	-0.10075135
94	0xbe1bbeef	-0.15209554
95	0xbebc2e9a	-0.36754304
96	0x3e46ed1e	0.1942639
97	0x3dbf31e5	0.093356885
98	0x3e721d0d	0.23643894
99	0xbf618d0c	-0.88105845
100	0xbf4761dc	-0.77883697
101	0xbf5bcde1	-0.8586102
102	0xbe9c9669	-0.30583504
103	0xbe11d0d9	-0.14239825
104	0x3db1c882	0.08680822
105	0xbf24a9ff	-0.64321893
106	0xbedbb16e	-0.42908806
107	0xbdf16f37	-0.11788791
108	0x3ea37103	0.3192216
109	0x3e77e350	0.24207807
110	0x3e0c31a4	0.13690811
111	0xbe7310a8	-0.23736823
112	0xbe9fb4d1	-0.3119264
113	0xbe830d5d	-0.25596133
114	0x3d6ceb19	0.057841394
115	0xbe086d4d	-0.13322945
116	0x3e2562f7	0.16151033
117	0x3cd19b8d	0.025586868
118	0xbe82a0bc	-0.25513256
119	0x3d7de663	0.061987292
120	0xbe70fa0d	-0.23532887
121	0xbea51cdd	-0.32248583
122	0xbe8048a7	-0.2505543
123	0x3cc75c9d	0.024336154
124	0xbe95092c	-0.2910856
125	0xbe5bc74a	-0.21462741
126	0xbf601ee5	-0.8754714
127	0xbf3665e2	-0.7124921
128	0xbf48c615	-0.7842725
129	0x38bf1e6f	9.1132584e-05
130	0x3e85a58a	0.2610286
131	0x3e49623e	0.19666383
132	0xbe00b2dc	-0.1256823
133	0x3e3788af	0.17923234
134	0x3e4fd087	0.2029439
135	0xbe542551	-0.2071736
136	0xbdefa8d4	-0.11702123
137	0xbe4b5aa7	-0.198588
138	0xbb8aae8c	-0.0042322334
139	0xbde00790	-0.109389424
140	0x3da21d20	0.079157114
141	0xbeababf6	-0.33529633
142	0x3c7a7539	0.015286737
143	0xbd7c84fa	-0.061650254
144	0x3e1e892d	0.15482016
145	0x3e1bff3e	0.15234086
146	0x3ebcfba2	0.3691073
147	0x3d682f1c	0.056685552
148	0x3d47e37e	0.048800938
149	0x3db895b7	0.09012931
150	0xbdff16b6	-0.12455504
151	0xbebb52b2	-0.3658653
152	0xbdfab311	-0.122411855
153	0x3de06bce	0.10958062
154	0xbe774722	-0.24148229
155	0xbefbeb44	-0.4920293
156	0x3df8ac06	0.12142186
157	0x3d5e9e11	0.054349963
158	0xbd95f8cd	-0.073228456
159	0xbd25970a	-0.040427245
160	0xbd9d47e4	-0.07679728
161	0xbe4ed0ff	-0.20196913
162	0xbeb78444	-0.35843098
163	0xbe8cc2e8	-0.27492452
164	0xbe39f127	-0.18158399
165	0x3f3d43d2	0.7393161
166	0x3f564a4d	0.83707124
167	0x3f318e9e	0.6935824
168	0xbeaa2372	-0.33230168
169	0x3e39f54c	0.1815998
170	0x37d77cc9	2.5688105e-05
171	0xbcef41f1	-0.029206248
172	0xbeabc295	-0.33546892
173	0xbe5fe2bc	-0.21863836
174	0x3e3c6ed8	0.18401659
175	0xbec63baa	-0.38717395
176	0xbe9e399f	-0.30903336
177	0x3d0bb888	0.03411153
178	0xbd826839	-0.06367535
179	0xbda307ce	-0.07960473
180	0x3e7ceec8	0.24700463
181	0x3e76ee42	0.24114326
182	0xbc192972	-0.00934826
183	0x3e5d1b07	0.21592341
184	0x3e565deb	0.20934264
185	0x3e7a392c	0.24435872
186	0x3e5ab0f6	0.21356568
187	0x3ed056a8	0.40691113
188	0x3e8d292b	0.2757047
189	0x3ebec9dc	0.3726338
190	0xbe71fea9	-0.23632301
191	0xbdf1145a	-0.1177146
192	0x3b66cff0	0.0035219155
193	0xbe1b6cf0	-0.15178275
194	0x3d4d0b56	0.05005964
195	0xbe09e601	-0.13466646
196	0xbf087b55	-0.5331319
197	0xbdf21454	-0.118202835
198	0xbc3bd644	-0.011464659
199	0xbeac73cd	-0.336821
200	0xbda7ebde	-0.08199285
201	0xbf0af3af	-0.5427808
202	0xbf3f0394	-0.74614835
203	0xbf1ee40f	-0.6206674
204	0xbf095984	-0.53652215
205	0xbf85416e	-1.0410593
206	0xbf5087e0	-0.8145733
207	0xbbb891e4	-0.005632626
208	0xbdd76b4e	-0.105185136
209	0xbe833dc7	-0.2563307
210	0x3f2069f7	0.6266169
211	0x3efbac70	0.49154997
212	0x3e4d4477	0.20045649
213	0xbca07175	-0.01958535
214	0xbe88e4a6	-0.26736945
215	0xbed17c0c	-0.40914953
216	0xbe19aebb	-0.1500806
217	0xbe0455f3	-0.12923412
218	0xbf16b539	-0.58870274
219	0x3e71dd41	0.23619558
220	0x3ec9db92	0.3942533
221	0x3e24fc83	0.1611195
222	0xbcec1a6b	-0.02882119
223	0x3e7cedc0	0.2470007
224	0xbeeeec03	-0.46664438
225	0xbe03fb1c	-0.1288876
226	0xbe4b700c	-0.19866961
227	0xbea16c65	-0.3152801
228	0x3ebcdb01	0.36885837
229	0xbcc0ecfa	-0.0235505
230	0x3e04b1ce	0.12958452
231	0xbccda4c1	-0.025102975
232	0xbdb17749	-0.0866533
233	0xbd4ed759	-0.05049834
234	0xbf8a422c	-1.0801444
235	0xbeceb4c4	-0.40372288
236	0xbf70802b	-0.9394557
237	0xbf1df6fc	-0.61704993
238	0xbf2a9ab9	-0.6664234
239	0xbf14c6d7	-0.58115906
240	0xbf39b83d	-0.7254675
241	0xbe87a731	-0.26494744
242	0xbe658b49	-0.22416414
243	0x3dd6d311	0.104894765
244	0xbec3b791	-0.38225988
245	0xbee89fd9	-0.45434454
246	0xbed6b84a	-0.41937476
247	0xbf3e3573	-0.7430031
248	0xbf680c9a	-0.9064423
249	0xbd457aba	-0.048212744
250	0xbdbc2a07	-0.091877036
251	0xbe04c004	-0.12963873
252	0xbecce1ba	-0.40015966
253	0xbf42bb3d	-0.7606695
254	0xbe9dc6b4	-0.3081566
255	0xbf1b8ea3	-0.6076452

expert.0.model.9.bias f4 [64]
0	0x3f00724e	0.50174415
1	0x3d677649	0.05650929
2	0xbfa67419	-1.300418
3	0xbf8aed77	-1.0853719
4	0xbf1ca0d7	-0.6118292
5	0xbf94e93c	-1.1633677
6	0xbec25b84	-0.37960446
7	0xbf2e0b85	-0.6798633
8	0xbf8f7c6b	-1.1209844
9	0xbf485179	-0.7824932
10	0xbf81bda1	-1.0135995
11	0xbda7a86c	-0.08186421
12	0xbf1ad021	-0.6047383
13	0x3e00c541	0.12575246
14	0xbc70f4b9	-0.014706784
15	0xbe225548	-0.15852845
16	0xbf45252f	-0.7700986
17	0xbebf6a96	-0.37386006
18	0x3eaf0c65	0.34189144
19	0x3ead6a8e	0.33870357
20	0xbf909eba	-1.129844
21	0xbf2a58b9	-0.6654163
22	0xbfb040e9	-1.3769809
23	0xbfa12f7b	-1.2592615
24	0xbeccc944	-0.39997303
25	0xbdb94913	-0.09047141
26	0x3d1c22e1	0.0381192
27	0x3ebfee20	0.37486362
28	0xbf37fc9f	-0.71869844
29	0xbe6c3e5f	-0.23070668
30	0xbf78a258	-0.97122717
31	0x3d0e6e9f	0.034773465
32	0xbf661364	-0.8987334
33	0xbf916554	-1.1359048
34	0xbf7d1331	-0.9885741
35	0xbd98f91b	-0.07469388
36	0xbf082660	-0.53183556
37	0xbd9d13aa	-0.07669766
38	0xbf6307a8	-0.8868356
39	0xbf1257c3	-0.57165164
40	0xbf19279d	-0.5982607
41	0xbd95ed20	-0.07320619
42	0xbe8aa7d4	-0.27081168
43	0xbf9d6c4c	-1.2298675
44	0x3e25e76e	0.16201565
45	0x3d92c14e	0.07165776
46	0xbea61ad7	-0.32442352
47	0x3d8a3131	0.06747664
48	0xbf31ea19	-0.6949783
49	0xbf96fa72	-1.179518
50	0xbedca80a	-0.43096954
51	0x3f1ecc96	0.62030923
52	0xbe9bed10	-0.30454302
53	0xbe95ab6f	-0.29232356
54	0xbf597a77	-0.8495249
55	0x3bff99d9	0.0078003225
56	0x3e93b3f3	0.28848228
57	0xbfb4ab4b	-1.4114774
58	0xbf45ddae	-0.7729138
59	0xbb709020	-0.0036707
60	0xbf32a712	-0.6978618
61	0x3f7d8920	0.9903736
62	0xbd7a7f8d	-0.0611568
63	0x3aa6f3db	0.001273747

expert.0.model.11.weight f4 [64]
0	0x3dd66518	0.10468501
1	0x3d6c32ba	0.057665564
2	0xbcf68ee7	-0.030097438
3	0xbb9f55fb	-0.0048625446
4	0xbbe84e18	-0.0070893876
5	0xbc00010f	-0.007812752
6	0x3de2e6dd	0.1107919
7	0x3d135998	0.035974115
8	0x3c216ad1	0.009852127
9	0x3dbd308b	0.092377745
10	0xbc836f16	-0.01604418
11	0xbaaf0586	-0.0013353087
12	0x39cac4a5	0.00038674954
13	0x3dd6ef2f	0.104948394
14	0x3dcf4ea5	0.10122422
15	0x3d8ed3fb	0.06974026
16	0x3d8ae6d6	0.0678231
17	0x3e07ace3	0.13249545
18	0x3db7f21d	0.08981726
19	0x3dd904e7	0.10596638
20	0x3ac0bb22	0.0014704207
21	0xbad7f297	-0.0016475496
22	0x3dea67a3	0.114455484
23	0xbc4039c8	-0.011732526
24	0x3bb579b0	0.005538188
25	0x3d9fb7b4	0.077987105
26	0x3dadd2fe	0.08487509
27	0x3de5e62c	0.112255424
28	0x3d8f7406	0.070045516
29	0x3e232fb6	0.15936169
30	0xbc6384f4	-0.013886679
31	0xbca9b630	-0.020716757
32	0xbc13a000	-0.009010315
33	0xbbafef2c	-0.0053690877
34	0x3cd6df3a	0.02622949
35	0x3dad8ca2	0.08474089
36	0x3de1df7c	0.110289544
37	0x3dce1506	0.10062604
38	0x3d5cacf0	0.053875864
39	0xbc766bda	-0.015040362
40	0xbc9a9a04	-0.018872268
41	0xbc781e48	-0.015143938
42	0x3df9b792	0.121932164
43	0x3ddc0638	0.10743374
44	0x3dae405e	0.08508371
45	0x3da1ce0d	0.07900629
46	0xbb70ac3f	-0.003672376
47	0x3e15d52d	0.14632101
48	0x3d38df20	0.045134664
49	0x3c2d036d	0.010559899
50	0x3da63755	0.081160225
51	0x3e052cd3	0.1300538
52	0x3e206151	0.15662123
53	0x3e0bdb9a	0.1365799
54	0x3d30386a	0.04302255
55	0x3db94c64	0.090477735
56	0x3d935260	0.07193446
57	0x3c2b9327	0.010472096
58	0xbb3a1ea8	-0.002839962
59	0x3b3ceb85	0.0028826904
60	0xbb2bffc9	-0.002624499
61	0x3dedc3a1	0.11609579
62	0x3e054af8	0.1301688
63	0x3daa640a	0.08319862

expert.0.model.11.bias f4 [64]
0	0x3b1dd300	0.0024082065
1	0x3b8c0dec	0.0042741206
2	0xbb7b9df1	-0.00383937
3	0x3b64e3a2	0.0034925719
4	0x3b2d0225	0.0026398983
5	0xbb819d92	-0.0039555514
6	0x3a8b68e1	0.0010636115
7	0xbaad8e7d	-0.0013241317
8	0xbbd3c8be	-0.0064631393
9	0xb9ad4466	-0.00033048092
10	0xbb4c675d	-0.003118954
11	0x3b76ec26	0.0037677377
12	0x3bc623bd	0.006046741
13	0x3b970515	0.00460876
14	0xbc16a1b5	-0.009193827
15	0xbad3b7a6	-0.0016152754
16	0x3a5e6c57	0.0008484772
17	0x3c210f05	0.009830241
18	0x3b2861a3	0.0025692962
19	0x3bed6d2e	0.0072456812
20	0x3ab221a0	0.0013590343
21	0x3a362c42	0.0006949344
22	0x3b098a94	0.002098714
23	0x3b933fe3	0.0044937
24	0x3b5177a0	0.0031962171
25	0x3b217986	0.0024639084
26	0x3b62bd85	0.0034597826
27	0xbc1c9421	-0.009556801
28	0x39ecea52	0.0004518801
29	0x3c46e3bf	0.01213926
30	0xba07f9bc	-0.00051870546
31	0x3b1237e6	0.002231115
32	0xbbe491da	-0.0069753947
33	0xb9fcdfb5	-0.0004823186
34	0xbb295877	-0.0025840083
35	0x390710e8	0.00012880901
36	0xbb83b2b8	-0.0040191077
37	0x3cb6ce18	0.02231507
38	0xbb81c00c	-0.0039596613
39	0xbb7d8d89	-0.0038689098
40	0xbba437f0	-0.005011551
41	0x39968b2f	0.0002871393
42	0x3b5e4c54	0.0033920007
43	0x3b817b93	0.003951499
44	0x3c29b413	0.010357874
45	0x3b9a0727	0.0047005597
46	0x3b13327e	0.0022460516
47	0xbb264a0e	-0.002537373
48	0xbb0c6c80	-0.0021426976
49	0xba83b177	-0.0010047395
50	0x3afcf277	0.0019298334
51	0xbc2f05bd	-0.01068252
52	0x3a9e2499	0.001206535
53	0x3b44da32	0.003003728
54	0xbb95e146	-0.004573974
55	0x3b2f1262	0.0026713838
56	0x3a3b4522	0.00071437855
57	0xba72cddb	-0.0009262242
58	0xbb79e282	-0.0038129394
59	0xba3f6654	-0.000730132
60	0xbbc16175	-0.0059015104
61	0xbca1c3dd	-0.019746715
62	0x3b2cc624	0.0026363218
63	0xbbe5884e	-0.007004774

expert.0.model.12.weight f4 [64, 64, 3, 3]
0	0xbecd064a	-0.4004386
1	0xbf46d659	-0.7767082
2	0xbf5c6b1a	-0.86100924
3	0x3f13c78b	0.57726353
4	0x3d1c21ae	0.038118057
5	0xbeba04f4	-0.36331904
6	0x3f18f0b7	0.597423
7	0x3ea2613c	0.3171481
8	0x3d7bd0ec	0.06147854
9	0x3ea7f054	0.32800543
10	0xbe957d4f	-0.29197165
11	0xbee122b7	-0.43971798
12	0x3f3f8564	0.7481291
13	0x3e8fade4	0.28062356
14	0xbe2d5679	-0.16927518
15	0x3e8aa04a	0.27075416
16	0x3edd1c7b	0.4318579
17	0x3e5a93e1	0.21345474
18	0xbe4f8af6	-0.20267853
19	0x3e5051de	0.2034373
20	0x3ea35a10	0.3190465
21	0xbd9eb43a	-0.07749219
22	0xbca08a5d	-0.019597227
23	0x3e77edce	0.24211809
24	0xbe9b544a	-0.30337745
25	0x3dccbab4	0.09996548
26	0xbdad6477	-0.08466428
27	0xbdbeec43	-0.09322407
28	0x3e019373	0.12653904
29	0xbdc6e218	-0.09711093
30	0xbd1ac88d	-0.037788916
31	0x3d361797	0.04445609
32	0x3dbeb3eb	0.093116604
33	0xbe56d28d	-0.20978756
34	0xbdad9480	-0.0847559
35	0x3db888ae	0.090104446
36	0x3d855b33	0.065115355
37	0xbae11ce0	-0.0017174743
38	0x3e401242	0.18756965
39	0xbe599fb6	-0.21252331
40	0x3d852718	0.06501597
41	0xbd94fc8d	-0.07274733
42	0xbd8f1620	-0.06986642
43	0xbdf2cf4d	-0.11855946
44	0x3e78a422	0.24281362
45	0xbb2d825b	-0.0026475403
46	0xbd92256c	-0.07136044
47	0xbd9edc14	-0.0775682
48	0xbbb68b01	-0.00557077
49	0xbe778f46	-0.24175748
50	0xbc8dd519	-0.017313527
51	0x3dc6e294	0.09711185
52	0xbda37854	-0.07981935
53	0x3dbd0ec0	0.09231329
54	0x3eaa7dac	0.33299005
55	0xbe834fe2	-0.25646883
56	0xbeb2c7d2	-0.34918076
57	0x3efe96e6	0.497245
58	0x3d48dce0	0.049038768
59	0xbea285dc	-0.31742752
60	0x3e98bfaf	0.29833743
61	0x3dcf5af2	0.10124768
62	0x3e246a29	0.16056122
63	0x3e938b0f	0.2881703
64	0x3c4cbe00	0.012496471
65	0xbe9f706b	-0.31140456
66	0x3e0ba660	0.13637686
67	0x3dd99f64	0.106261045
68	0x3c0c8670	0.008576974
69	0xbde4d37a	-0.111731485
70	0x3e69c630	0.22829509
71	0x3da2ac8f	0.07943069
72	0xbec1daed	-0.3786234
73	0xbd864745	-0.06556562
74	0xbde05b23	-0.10954883
75	0x3cacc3a2	0.021089379
76	0x3cad02c9	0.021119492
77	0x3e760d59	0.24028529
78	0x3e0b2338	0.13587654
79	0x3dd4f5ef	0.103984706
80	0x3e8dc2c9	0.27687672
81	0xbcf68102	-0.030090813
82	0xbf1184e9	-0.5684343
83	0xbf21e5d9	-0.63241345
84	0x3efec25a	0.49757653
85	0x3e53e4ac	0.206927
86	0xbe9d52b6	-0.30727166
87	0x3e4d0da1	0.2002473
88	0x3e9f5005	0.31115738
89	0xbe035da2	-0.12828687
90	0x3d7b2350	0.061312973
91	0x3eebe1b4	0.46070635
92	0x3e924a8b	0.28572497
93	0xbeebcad3	-0.4605318
94	0x3dc16a53	0.09444108
95	0xbe55596b	-0.20834891
96	0xbd640905	-0.055672664
97	0xbe914d10	-0.28379107
98	0xbe731599	-0.23738708
99	0xbe816890	-0.25275087
100	0xbdf3e2d3	-0.11908498
101	0xbe0e34ef	-0.1388738
102	0xbd1d3cc7	-0.03838804
103	0xbe358d36	-0.17729649
104	0x3d5e8576	0.054326497
105	0x3d9265e4	0.0714834
106	0xbe230a3a	-0.1592187
107	0x3d0d20dc	0.034455165
108	0x3e7b4186	0.24536714
109	0x3e5dff0b	0.21679322
110	0xbe3b8f56	-0.18316397
111	0xbc6a5270	-0.014301881
112	0xbe23cdc0	-0.15996456
113	0x3d0cea8d	0.034403373
114	0xbe360247	-0.17774306
115	0xbeba27b7	-0.36358425
116	0x3e4c4ad0	0.19950414
117	0x3d0e85f6	0.034795724
118	0x3f28e483	0.6597368
119	0x3f86a098	1.0517759
120	0xbf3d9d11	-0.7406779
121	0xbf370de7	-0.7150559
122	0x3e10e1bb	0.1414861
123	0x3f18ff20	0.5976429
124	0x3ea6621b	0.32496724
125	0x3ed43a51	0.41450742
126	0x3d479345	0.04872443
127	0x3e9cbc10	0.3061223
128	0xbde18a22	-0.11012675
129	0x3d94cc1b	0.072654925
130	0x3e9c08af	0.30475375
131	0x3c7edb2d	0.015555185
132	0xbec4d313	-0.38442287
133	0xbe855942	-0.2604466
134	0xbea1a94b	-0.31574473
135	0x3d8c8f1a	0.06863232
136	0xbe4c0132	-0.19922331
137	0x3f44df02	0.7690278
138	0xbe60e563	-0.21962504
139	0xbf8c0636	-1.0939395
140	0xbeb2ea9a	-0.34944612
141	0x3f4945e2	0.7862226
142	0xbd0ad934	-0.033898547
143	0x3e528d6b	0.20561759
144	0x3e82afb6	0.25524682
145	0x3e6e21a0	0.23255014
146	0x3f3e32a3	0.74296016
147	0xbe66af82	-0.22527888
148	0xbf622c9d	-0.88349324
149	0xbe99ed01	-0.30063632
150	0x3efc89ad	0.49323788
151	0xbe6faca6	-0.23405704
152	0xbe12ffe0	-0.14355421
153	0xbed6d26e	-0.4195742
154	0xbe90b12a	-0.28260165
155	0x3e791833	0.24325638
156	0x3e6e0657	0.23244606
157	0x3f26fe1f	0.6523151
158	0x3f1d650f	0.6148233
159	0xbea9f944	-0.33197987
160	0xbf06650f	-0.52497953
161	0xbecb00e9	-0.39649132
162	0x3dd183b9	0.10230202
163	0xbe05beee	-0.13061115
164	0x3f660ec2	0.8986627
165	0xbe62f871	-0.22165085
166	0xbdf3bb7c	-0.11900994
167	0x3dffd486	0.124917075
168	0x3e672f0a	0.22576538
169	0xbe37f124	-0.17963082
170	0xbec1d61b	-0.37858662
171	0xbe5a2192	-0.21301869
172	0xbf2283f7	-0.6348261
173	0xbf4f650e	-0.8101357
174	0x3e3851e1	0.17999984
175	0x3efa986b	0.4894441
176	0x3e5d9a17	0.21640812
177	0xbd6fd552	-0.058553047
178	0xbe6cd9cb	-0.23129956
179	0xbe2ca04f	-0.16858028
180	0x39211bab	0.00015364464
181	0x3e30a67c	0.17251009
182	0x3e3f4837	0.18679892
183	0x3e27b8a2	0.16379026
184	0x3c7d03da	0.015442813
185	0x3ba1fa29	0.0049431515
186	0x3e8f20d4	0.27954733
187	0x3de036ba	0.10947938
188	0x3e2d7148	0.16937745
189	0xbdf63455	-0.120217
190	0xbe8845c2	-0.2661572
191	0xbc943f50	-0.018096596
192	0xbe2130e5	-0.15741308
193	0xbd00d706	-0.031455062
194	0x3d9e032a	0.07715447
195	0x3c846903	0.016163355
196	0x3b9deabd	0.0048192427
197	0x3e040019	0.12890662
198	0xbe81ab41	-0.2532597
199	0xbe5557f8	-0.20834339
200	0xbe96ab03	-0.29427347
201	0x3e11fb81	0.14256097
202	0x3c49c295	0.012314458
203	0xbdb6bbf9	-0.08922572
204	0x3e90ae77	0.28258106
205	0x3e0a6bf0	0.13517737
206	0x3dbc0657	0.09180897
207	0x3e0c24a9	0.1368586
208	0xbd891d33	-0.066950224
209	0xbc1d8824	-0.009614978
210	0x3e215516	0.15755114
211	0xbe18230d	-0.14857121
212	0xbe82c89a	-0.25543672
213	0x3e847410	0.258698
214	0xbcab1d58	-0.020888016
215	0xbd2aa070	-0.04165691
216	0x3c9a27ee	0.018817868
217	0x3dddbdeb	0.108272396
218	0xbda1b9a8	-0.07896739
219	0x37b0f977	2.1097001e-05
220	0xbd8bdd22	-0.06829287
221	0x3e216cbe	0.15764138
222	0x3d35080f	0.04419714
223	0xbed9ddd3	-0.4255205
224	0xbeb0d1af	-0.34534976
225	0xbeaf48e2	-0.34235293
226	0x3e880d51	0.2657266
227	0x3ec5ba2d	0.38618603
228	0xbe10cc74	-0.14140493
229	0x3f114f92	0.5676204
230	0x3f11f5ab	0.57015485
231	0xbf42a1b1	-0.7602797
232	0xbe7fbac9	-0.24973597
233	0xbca637e5	-0.020290324
234	0x3e303eab	0.17211406
235	0xbd6003f4	-0.05469127
236	0xbed48c6b	-0.4151338
237	0x3e0ded94	0.1386016
238	0xbd2ed394	-0.042682245
239	0xbf01647d	-0.5054396
240	0x3e52184a	0.20517078
241	0x3e8e68c2	0.278143
242	0xbd8bec04	-0.06832126
243	0x3ea929b3	0.33039626
244	0x3f19c2db	0.6006295
245	0x3f3672a5	0.71268684
246	0xbeddcd0f	-0.4332051
247	0xbdb2abb7	-0.08724158
248	0xbc8312af	-0.01600012
249	0x3da85c3e	0.08220719
250	0x3e34a52f	0.17641138
251	0x3eab8446	0.33499354
252	0xbc0e4574	-0.008683551
253	0x3e7f2641	0.24916936
254	0x3e81b35b	0.2533215
255	0xbde5fd16	-0.11229913

expert.0.model.12.bias f4 [64]
0	0xbe820255	-0.25392404
1	0xbeae4ff3	-0.3404537
2	0xbe6f446e	-0.23365948
3	0xbed11b09	-0.4084094
4	0xbebd0438	-0.3691728
5	0xbded6893	-0.115922116
6	0xbec2914a	-0.38001472
7	0xbee492b7	-0.44643185
8	0xbebcedad	-0.36900082
9	0xbeda8e77	-0.42686817
10	0xbed51d4e	-0.4162392
11	0xbea89c54	-0.3293177
12	0xbecc16b5	-0.39861074
13	0xbe5e6243	-0.21717171
14	0xbebcb864	-0.3685943
15	0xbea39cef	-0.31955668
16	0xbec56861	-0.38556197
17	0xbeb2caa4	-0.34920228
18	0xbed15971	-0.4088855
19	0xbed2b2bd	-0.4115199
20	0xbea63e8f	-0.32469603
21	0xbed1dc97	-0.4098861
22	0xbecac945	-0.3960668
23	0xbecff2d5	-0.40614954
24	0xbed0d2d4	-0.4078585
25	0xbeb95b59	-0.36202505
26	0xbe0750a6	-0.13214359
27	0xbea2179a	-0.31658632
28	0xbe8df028	-0.27722287
29	0xbeb61763	-0.35564718
30	0xbe3a3d3c	-0.18187422
31	0xbed2cf82	-0.4117394
32	0xbecc2984	-0.39875424
33	0xbe33d570	-0.17561889
34	0xbe5d721b	-0.21625559
35	0xbed6096e	-0.4180407
36	0xbecede73	-0.4040409
37	0xbeaa3e08	-0.3325045
38	0xbed76b2f	-0.42073962
39	0xbed5a5f4	-0.41728175
40	0xbe9fe882	-0.31232077
41	0xbeab953c	-0.33512294
42	0xbeac89ee	-0.33698982
43	0xbe3287d8	-0.17434633
44	0xbe95f717	-0.29290077
45	0xbea21b6f	-0.31661555
46	0xbeaa1b6c	-0.33224046
47	0xbe18e194	-0.14929801
48	0xbe8f0bbd	-0.27938643
49	0xbeb88203	-0.3603669
50	0xbe997e91	-0.29979375
51	0xbeac2f25	-0.33629718
52	0xbec7c465	-0.39017025
53	0xbeaccaa6	-0.33748358
54	0xbeed2464	-0.46316826
55	0xbeb42845	-0.35186973
56	0xbe902879	-0.28155878
57	0xbe308634	-0.17238694
58	0xbeaf833f	-0.3427982
59	0xbe8abb85	-0.2709619
60	0xbed9949b	-0.4249619
61	0xbe9902c3	-0.2988492
62	0xbebcfdf8	-0.36912513
63	0xbeaa53c3	-0.3326703
